models/pytorch_model_best.pth (torch, 62525 bytes, 9 tensors)

net.0.weight f4 [128, 43]
0	0x3d2cd9ce	0.042199902
1	0x3d0e0077	0.034668412
2	0xbd08f78d	-0.033439208
3	0x3d640210	0.05566603
4	0x3c381efd	0.011237857
5	0xbd3afdbe	-0.045652144
6	0xbe1c1b92	-0.15244892
7	0xbc8709ed	-0.016484225
8	0xbcf5df95	-0.030013839
9	0x3e1b2671	0.15151383
10	0x3d5d9584	0.054097667
11	0xbd225f04	-0.039641395
12	0x3dc3a346	0.09552626
13	0x3d33d40c	0.043903396
14	0x3d4fd234	0.050737575
15	0x3d280a65	0.041025538
16	0xbce96f25	-0.02849538
17	0x3d37a45d	0.044834483
18	0xba8e2bc3	-0.0010846782
19	0xbd28d94b	-0.04122285
20	0xbd00b0ff	-0.031418797
21	0x3e0c0829	0.13674988
22	0xbe48289b	-0.1954674
23	0xbd4701fc	-0.048585877
24	0x3d7d0424	0.061771527
25	0x3dc84a48	0.09779793
26	0x3d6ff21e	0.05858051
27	0x3e2dd22c	0.16974705
28	0xbe1216d2	-0.14266518
29	0x3da861f4	0.08221808
30	0xbd87c856	-0.06630008
31	0xbd94db94	-0.07268444
32	0x3dc31002	0.095245376
33	0x3e1d7325	0.15375955
34	0x3db51517	0.08841913
35	0x3d458548	0.04822281
36	0xbc8197bc	-0.015819423
37	0x3a8be910	0.0010674316
38	0xbe0ad2e2	-0.13557008
39	0x3d85c949	0.06532533
40	0x3e1f52f8	0.15558994
41	0xbdc63ec1	-0.09679938
42	0x3d4ae80f	0.049537715
43	0x3b371bfb	0.0027940262
44	0x3a1936bd	0.00058446435
45	0x3c7127ba	0.014718944
46	0xbe2e3010	-0.17010522
47	0x3d5fae01	0.054609302
48	0x3d5d7ecf	0.054076012
49	0x3dee6770	0.11640823
50	0xbd84331b	-0.0645506
51	0xbd973787	-0.07383638
52	0x3d7445ec	0.059636995
53	0x3e5178b0	0.20456195
54	0xbd639510	-0.05556208
55	0xbe405556	-0.18782553
56	0xbd099f83	-0.033599388
57	0x3dd9a576	0.10627262
58	0xbd33fd47	-0.043942716
59	0x3d167cf4	0.03674026
60	0xbd0e0ed7	-0.03468212
61	0x3d73bb79	0.05950496
62	0x3cb4467a	0.022006262
63	0xbdf11744	-0.11772016
64	0x3db7cca0	0.08974576
65	0x3c601238	0.013676219
66	0x3d8cb949	0.06871278
67	0x3da535c1	0.08066893
68	0x3ca688f1	0.02032897
69	0xbe197b17	-0.14988361
70	0xbd45f33f	-0.04832768
71	0xbd627922	-0.055291303
72	0xbdd3cdbb	-0.10341974
73	0x3d87b4a3	0.066262506
74	0xbdc1f934	-0.0947136
75	0x3d88c4c6	0.066781566
76	0x3d456977	0.048196282
77	0xbd542ae4	-0.051798716
78	0x3d6926a4	0.056921616
79	0x3d6741ff	0.056459423
80	0xbc3c83ad	-0.011506003
81	0xbca0325d	-0.019555265
82	0x3d8f86bc	0.070081204
83	0x3cb65785	0.02225853
84	0x3e00feea	0.12597242
85	0x3dae3652	0.085064545
86	0x3d949b53	0.07256188
87	0x3de8c714	0.11366096
88	0xbdcfbe39	-0.10143704
89	0xbcee485b	-0.029087236
90	0xbd0c6259	-0.03427348
91	0x3d7465dc	0.059667453
92	0x3ccb951e	0.024851378
93	0x3dfb26d3	0.122632645
94	0x3cf268ed	0.029591048
95	0xbddd67c4	-0.10810807
96	0x3e38a597	0.18031918
97	0xbe58f029	-0.21185364
98	0x3dcbe250	0.09955275
99	0xbc919e10	-0.017775565
100	0xbe265be5	-0.16245992
101	0x3dea843a	0.114510015
102	0x3d793d87	0.060849693
103	0x3ce18af9	0.027532088
104	0xbdc8e153	-0.09808602
105	0x3df82191	0.12115777
106	0x3d8ff13f	0.07028436
107	0x3dab9661	0.08378292
108	0xbe09db33	-0.13462524
109	0xbdc3747f	-0.09543704
110	0x3e19a19e	0.15003058
111	0xbe22c432	-0.15895155
112	0xbdcd1dee	-0.10015474
113	0x3d4351cf	0.04768544
114	0x3daaf723	0.08347919
115	0xbe1967a5	-0.14980944
116	0xbd03fec8	-0.0322254
117	0x3ce0605e	0.027389701
118	0x3c82eb9c	0.015981488
119	0x3daa0123	0.08300998
120	0xbc209774	-0.009801734
121	0x3cf20d42	0.029547337
122	0x3c80caf6	0.01572178
123	0xbd2bb192	-0.04191739
124	0xbd798919	-0.060921762
125	0xbda88b91	-0.08229745
126	0xbdbdcb89	-0.09267337
127	0x3dadf54f	0.084940545
128	0xbd0b4249	-0.03399876
129	0xbc861055	-0.01636521
130	0x3c07f17d	0.008297321
131	0xbd0e6aca	-0.03476981
132	0x3d05ba2f	0.03264826
133	0xbd920cc9	-0.07131345
134	0xbe66f80d	-0.22555561
135	0xbcec912f	-0.028877823
136	0x3d0cbcb3	0.034359645
137	0x3b27297b	0.0025506902
138	0xbc14b51a	-0.009076381
139	0xbe5f21ff	-0.21790312
140	0xbd755780	-0.0598979
141	0x3d653b47	0.055964734
142	0xbac51325	-0.0015035613
143	0xbbe8060b	-0.0070807985
144	0x3d6f2ab3	0.05839033
145	0xbdc188e5	-0.09449939
146	0xbd673ac6	-0.056452535
147	0xbded5f78	-0.11590475
148	0x3e307aab	0.17234294
149	0xbb8050ec	-0.0039158966
150	0x3cef02be	0.029176112
151	0xbd23dfea	-0.040008463
152	0x3e36b6be	0.17843148
153	0xbdc92bc0	-0.09822798
154	0x3dcaa72c	0.09895167
155	0xbc037ac9	-0.00802488
156	0xbd3c7393	-0.046008658
157	0xbde53ecc	-0.11193618
158	0xbd9d29c6	-0.07673983
159	0xbd997d56	-0.07494609
160	0xbd4e8a0b	-0.050424617
161	0x3d645cdb	0.055752616
162	0x3d3931c0	0.04521346
163	0xbe27e4ca	-0.1639587
164	0x3ca581e8	0.020203546
165	0xbba2abde	-0.004964336
166	0x3dbf4ccd	0.093408205
167	0x3d72f241	0.059313063
168	0x3d4da0ad	0.05020206
169	0xba865e3f	-0.0010251476
170	0x3db1333f	0.086523525
171	0x3ced5be0	0.028974473
172	0xbd0d856d	-0.034551073
173	0xbca48435	-0.020082572
174	0x3d79f483	0.0610242
175	0xbda5561d	-0.080730654
176	0xbb8cdebe	-0.004299014
177	0xbd6cd87e	-0.05782365
178	0xbdba2f58	-0.09091061
179	0xba4f11a5	-0.00078990526
180	0xbd6fc582	-0.058537968
181	0xbd5f2a53	-0.054483723
182	0x3ca74ed4	0.02042333
183	0x3eab5402	0.3346253
184	0x3c41ba22	0.011824163
185	0xbbd0ed5c	-0.0063759517
186	0xbc801566	-0.015635204
187	0x3daaa20e	0.08331691
188	0x3d38209c	0.044952974
189	0xbdba80bf	-0.091065876
190	0x3d8a4878	0.067521036
191	0xbb7961a9	-0.0038052595
192	0x3db1ef61	0.08688236
193	0x3d87ca53	0.06630387
194	0x3da68602	0.08131029
195	0xbe300f96	-0.17193446
196	0xbbdb7669	-0.006697465
197	0xbdac901c	-0.08425924
198	0x3d56da73	0.052454423
199	0x3d945413	0.072425984
200	0x3dfb3c7f	0.12267398
201	0x3e13333d	0.14375015
202	0x3d596eb0	0.053084075
203	0x3c54b410	0.012982383
204	0xbdd6a3e2	-0.10480477
205	0x3dd2164f	0.10258161
206	0x3dd639ef	0.10460269
207	0x3e1f5f3a	0.1556367
208	0xbd7c77fa	-0.061637856
209	0x3e174291	0.14771487
210	0x3c08b064	0.008342836
211	0x3dec0595	0.11524502
212	0xbd1c1088	-0.038101703
213	0x3b083863	0.0020785562
214	0x3e2e7aeb	0.17039077
215	0x3d2e2ed0	0.042525113
216	0x3e02cab5	0.12772639
217	0xbc319c91	-0.010840551
218	0xbd592ee7	-0.053023245
219	0x3daff03e	0.085907444
220	0xbe02632f	-0.12733148
221	0x3dbd22a9	0.092351265
222	0x3de089c2	0.10963775
223	0xbd888119	-0.066652484
224	0xbd2f934c	-0.042865083
225	0xbbef93fc	-0.0073113423
226	0x3e4e8bb5	0.20170482
227	0x3c63861c	0.013886955
228	0x3e1bc13a	0.15210429
229	0xbdb342d2	-0.08752979
230	0xbcdbb7cd	-0.026821041
231	0x3db71517	0.089395694
232	0x3e08f270	0.13373733
233	0xbe0611be	-0.13092706
234	0x3ca40dcd	0.020026112
235	0x3db72991	0.08943475
236	0xb954b726	-0.00020286124
237	0x3de75951	0.11296333
238	0xbc7e22b9	-0.015511208
239	0x3d906682	0.07050802
240	0x3df5fa2c	0.12010607
241	0x3e072f46	0.13201627
242	0x3df774b8	0.12082809
243	0x3d93fb5e	0.07225679
244	0xbe3dd47f	-0.18538092
245	0x3d2e6e61	0.042585734
246	0x3cbde5f1	0.023180934
247	0x3d7318ae	0.05934971
248	0xbda09d43	-0.07842495
249	0xbe12b215	-0.14325745
250	0x3e1ea18c	0.15491313
251	0xbd26f1be	-0.040757887
252	0xbe1d3035	-0.15350421
253	0xbd20aea3	-0.039229047
254	0xba378308	-0.0007000421
255	0x3dd41c56	0.10356967

net.0.bias f4 [128]
0	0x3e1ef124	0.15521675
1	0xbddf41c7	-0.10901218
2	0xbb33c26f	-0.0027429124
3	0xbe0fc80d	-0.14041157
4	0x3d959e6b	0.073056065
5	0xbdfa4f8c	-0.122222036
6	0x3b454c35	0.0030105237
7	0x3c615a61	0.013754458
8	0xbb889af3	-0.004168862
9	0x3e05c0d0	0.13061833
10	0xbe1d2f9e	-0.15350196
11	0x3d0c09dd	0.034189094
12	0xbe0d222d	-0.13782568
13	0xbdf0904d	-0.11746273
14	0x3bda66a5	0.006665068
15	0xbddec011	-0.108764775
16	0xbe2a1331	-0.16608883
17	0x3dab28f1	0.08357418
18	0xbe23ea12	-0.1600726
19	0xbe1c22f0	-0.15247703
20	0xbd64f94a	-0.055901803
21	0x3debab42	0.11507274
22	0x3ce34400	0.027742386
23	0xbdbb5f3e	-0.091490254
24	0x3e2ec2b1	0.17066456
25	0x3cc46efe	0.023978706
26	0xbe470ab1	-0.19437672
27	0x3c54cb99	0.012987995
28	0x3d2fe8cd	0.042946626
29	0xbd986968	-0.0744198
30	0xbd601e86	-0.05471661
31	0x3dd365e1	0.10322166
32	0x3d78d021	0.060745362
33	0x3c9d9ed9	0.019240784
34	0xbd7ea860	-0.062172294
35	0xbd2275ad	-0.039663006
36	0xbe3692f8	-0.17829502
37	0xbe3f2204	-0.1866532
38	0x3d8b0bc0	0.067893505
39	0x3d939e42	0.0720792
40	0xbdcc4c08	-0.09975439
41	0xbdfc3566	-0.123148724
42	0x3db7f607	0.08982473
43	0xbe099b0f	-0.13438056
44	0xbd3de27f	-0.04635858
45	0xbd0e0929	-0.034676705
46	0x3d0692f2	0.03285498
47	0xbe45375a	-0.19259396
48	0x3c97ad18	0.018515155
49	0x3de23bef	0.11046588
50	0xbd2dd838	-0.04244253
51	0xbc86c2ca	-0.016450305
52	0x3c041afc	0.008063074
53	0xbe10b13e	-0.14130113
54	0x3dc8cd50	0.09804785
55	0xbe59378d	-0.21212597
56	0xbe4bec20	-0.19914293
57	0x3cf1d1ab	0.029518923
58	0xbe154b62	-0.14579538
59	0xbcd2af91	-0.025718482
60	0xbd8d25a9	-0.06891949
61	0x3d9abaa4	0.0755513
62	0xbdc82395	-0.09772412
63	0x3d352dcc	0.04423313
64	0xbd661744	-0.05617453
65	0xbe1842f0	-0.14869285
66	0xbda34073	-0.07971277
67	0xbc9236ef	-0.01784846
68	0xbe324411	-0.17408778
69	0x3d0a22df	0.033724662
70	0x3bd57885	0.006514611
71	0x3d79360b	0.060842555
72	0xbbff1871	-0.007784896
73	0x3df1d722	0.118086115
74	0xbcf0d791	-0.029399665
75	0xbdc10001	-0.09423829
76	0x3d24da86	0.040247463
77	0xbd492fa0	-0.049117684
78	0x3b9be2d1	0.004757263
79	0xbe16ad95	-0.14714654
80	0xbdf0763f	-0.11741304
81	0x3d505b85	0.05086853
82	0x3d0d323f	0.034471747
83	0x3e15204a	0.14563099
84	0x3d398d70	0.0453009
85	0x3d9a1f27	0.07525473
86	0x3e12fe9a	0.14354935
87	0x3da331d6	0.0796849
88	0x3db98f8b	0.09060582
89	0xbde7554a	-0.112955645
90	0xbe0a5bc5	-0.1351157
91	0xbe450cd6	-0.19243178
92	0xbe33e4a9	-0.17567696
93	0x3c29fcab	0.010375182
94	0xbd0a515e	-0.033769004
95	0x3e07f96b	0.13278739
96	0xbe279b26	-0.16367778
97	0x3d0c7b95	0.034297545
98	0x3a9952d3	0.0011697657
99	0xbe127798	-0.14303434
100	0xbdcbeabd	-0.09956882
101	0xbd4922fa	-0.049105622
102	0x3de89aad	0.11357627
103	0x3d8712e0	0.06595397
104	0x3b8edf25	0.004360097
105	0xbd8891f7	-0.066684656
106	0xbe49f6f0	-0.19723105
107	0xbdf13d9f	-0.117793314
108	0xbd21671d	-0.039404977
109	0xbd64555c	-0.055745468
110	0xbe0ae0b6	-0.13562283
111	0xbb0fda1b	-0.002195007
112	0x3de95e98	0.113949955
113	0xbd881317	-0.06644266
114	0xbdc009d1	-0.09376872
115	0x3da304e0	0.07959914
116	0xbe018d08	-0.12651455
117	0x3d7d7415	0.061878283
118	0xbd066e4f	-0.032820042
119	0x3d9f1f3e	0.07769631
120	0xbe43b5c6	-0.1911231
121	0xbd8c0728	-0.068373024
122	0x3d77d18c	0.060502574
123	0x3da29a8e	0.07939635
124	0xbc51c73e	-0.012803851
125	0x3dda0b85	0.106467284
126	0xbd854502	-0.06507303
127	0xbd87b7ae	-0.06626831

net.2.weight f4 [128]
0	0x3f780ae8	0.9689164
1	0x3f88afcc	1.0678649
2	0x3f876fba	1.0580971
3	0x3f92993b	1.1453012
4	0x3f8a09ef	1.0784281
5	0x3f8712ee	1.0552652
6	0x3f9b9c98	1.2157164
7	0x3fa053bb	1.2525553
8	0x3f8474d5	1.0348154
9	0x3f7bbf8d	0.9833916
10	0x3f8f5f48	1.1200953
11	0x3fa10578	1.2579794
12	0x3f926f09	1.1440135
13	0x3f8ad471	1.0846082
14	0x3f84bda5	1.0370375
15	0x3f883f5b	1.0644335
16	0x3f8dfec2	1.1093371
17	0x3f855a4c	1.0418181
18	0x3f89aded	1.0756203
19	0x3f9752ea	1.1822178
20	0x3f8be8eb	1.0930456
21	0x3f8f4fe9	1.1196262
22	0x3f8941e5	1.0723234
23	0x3f7e5fce	0.99364936
24	0x3f8701a8	1.054738
25	0x3f938f01	1.1528016
26	0x3f8d8a6e	1.105787
27	0x3f8985bd	1.0743939
28	0x3f8c2379	1.0948325
29	0x3f8312ff	1.0240172
30	0x3f9bc86f	1.2170542
31	0x3f845cc9	1.0340816
32	0x3f8eade3	1.1146816
33	0x3f870589	1.0548564
34	0x3f95b067	1.1694459
35	0x3f76d868	0.9642396
36	0x3f8c90fb	1.0981745
37	0x3f904fb7	1.1274327
38	0x3f9a73c6	1.2066581
39	0x3f9862b9	1.1905128
40	0x3f9b8be5	1.2152067
41	0x3f8d4992	1.1038077
42	0x3f877879	1.058364
43	0x3f8708b6	1.0549533
44	0x3f88b053	1.067881
45	0x3f81e67f	1.0148467
46	0x3f8d4771	1.1037427
47	0x3f8f3bc1	1.119011
48	0x3f842c4b	1.0326017
49	0x3f8fc3af	1.1231593
50	0x3f81d69f	1.0143622
51	0x3f8b39e4	1.0877042
52	0x3f855751	1.0417272
53	0x3f887a96	1.066241
54	0x3f87d8f3	1.0613083
55	0x3fa13b08	1.259614
56	0x3f8814b2	1.0631316
57	0x3f8e6ea1	1.1127511
58	0x3f8cfd97	1.101489
59	0x3f8e7067	1.1128052
60	0x3f873b47	1.0564965
61	0x3f849341	1.0357438
62	0x3f82e765	1.0226866
63	0x3f887efb	1.0663751
64	0x3f96bb44	1.1775899
65	0x3f887eb4	1.0663667
66	0x3f9582f1	1.1680585
67	0x3f8c09df	1.0940512
68	0x3f9dda16	1.233218
69	0x3f879ec9	1.0595332
70	0x3f87987e	1.0593412
71	0x3f88bd53	1.0682777
72	0x3f85f0b8	1.0464087
73	0x3f8a6c70	1.0814342
74	0x3fa22e85	1.2670447
75	0x3f9b22a2	1.2119944
76	0x3f8c47fe	1.095947
77	0x3f883502	1.0641177
78	0x3f9dec95	1.2337824
79	0x3f90c04b	1.1308683
80	0x3f8c1618	1.0944242
81	0x3f922afd	1.1419369
82	0x3f9ad09e	1.2094915
83	0x3f8459dd	1.0339924
84	0x3f8cea19	1.1008941
85	0x3f8c32b0	1.0952969
86	0x3f909444	1.1295247
87	0x3f850107	1.0390939
88	0x3f84848b	1.0352949
89	0x3f893fd7	1.0722607
90	0x3f8bc972	1.0920851
91	0x3f8fdb95	1.1238886
92	0x3f8c4204	1.0957646
93	0x3f91449e	1.1349065
94	0x3f810325	1.0079085
95	0x3f8c5002	1.0961916
96	0x3f866bbf	1.0501631
97	0x3f986820	1.1906776
98	0x3f8608b4	1.0471406
99	0x3f86e937	1.0539922
100	0x3f897e98	1.0741758
101	0x3f89ea45	1.0774618
102	0x3f898767	1.0744447
103	0x3f862f4e	1.0483186
104	0x3f84d17f	1.0376433
105	0x3f80e200	1.006897
106	0x3f9ab5b2	1.2086699
107	0x3f8d6da4	1.1049085
108	0x3f89eaae	1.0774744
109	0x3f88e1a8	1.0693865
110	0x3f89a206	1.0752571
111	0x3f861bb5	1.0477206
112	0x3f867319	1.0503875
113	0x3f84ffc6	1.0390556
114	0x3f9b2ef6	1.2123706
115	0x3f8ba41e	1.090946
116	0x3f899e3a	1.0751412
117	0x3f8d920c	1.1060195
118	0x3f94bee1	1.1620752
119	0x3f85f8d4	1.0466561
120	0x3f8a415f	1.08012
121	0x3f93cdd6	1.1547191
122	0x3f8f3eb9	1.1191016
123	0x3f87e364	1.0616269
124	0x3f910abc	1.1331401
125	0x3f89f4db	1.0777849
126	0x3f8c052f	1.0939082
127	0x3f8abc15	1.0838648

net.2.bias f4 [128]
0	0x3d6178c7	0.055046823
1	0xbd1fe491	-0.039036337
2	0xbdb1b2e6	-0.086767
3	0x3c8662c4	0.016404517
4	0x3de0b74e	0.109724626
5	0x3d05da31	0.032678787
6	0x3dc4fbcf	0.09618341
7	0xbd72f4a6	-0.059315346
8	0xbdc3dcae	-0.09563576
9	0x3da2edbe	0.07955502
10	0xbd2591b2	-0.04042215
11	0x3da62237	0.08111995
12	0x3c9ef3de	0.019403394
13	0xbd93d97a	-0.07219215
14	0xbd95304d	-0.07284603
15	0xbd815365	-0.06314734
16	0x3d36adb4	0.04459925
17	0x3d8cbdc7	0.06872135
18	0xbd72f72f	-0.059317764
19	0x3d2ee50a	0.042698897
20	0xbd116673	-0.035498094
21	0x3dd62990	0.10457146
22	0x3d3094d7	0.043110695
23	0xbd6eda32	-0.058313556
24	0x3d7dc034	0.061950877
25	0xbcca2b0c	-0.02467873
26	0xbc5686c3	-0.013093653
27	0xbdb71849	-0.08940179
28	0x3dc1b6da	0.09458704
29	0x3b4a2ed3	0.0030850663
30	0x3b90022e	0.004394791
31	0x3ccb6715	0.024829427
32	0xbc992ff8	-0.018699631
33	0xbcf5cf4f	-0.030006079
34	0x3ce13241	0.027489783
35	0x3d8a5dca	0.0675617
36	0xbca4a506	-0.02009822
37	0xbd8b9aa1	-0.068166025
38	0x3c0054ee	0.007832749
39	0x3d9913bc	0.07474467
40	0x3d02fb44	0.031977907
41	0xbdcf1218	-0.10110873
42	0xbd759a13	-0.05996139
43	0x3db1711b	0.08664151
44	0x3d930385	0.07178406
45	0x3c2ddb20	0.0106113255
46	0xbc08fb07	-0.008360631
47	0xbd8b8d1e	-0.06814025
48	0x3d2243fc	0.039615616
49	0x3df292e1	0.11844421
50	0xbc99390b	-0.018703958
51	0x3dfc8f9b	0.12332078
52	0xbd886335	-0.06659547
53	0x3c4aa676	0.012368789
54	0x3e02c985	0.12772186
55	0x3e06e96a	0.13174978
56	0x3c4c522c	0.012470763
57	0xba97aadf	-0.0011571309
58	0x3c386543	0.011254611
59	0x3c6bc261	0.014389605
60	0xbd2f6349	-0.042819295
61	0xbdbba573	-0.09162416
62	0xbdb317f9	-0.08744807
63	0xbd61693c	-0.055032
64	0xbd91d5ce	-0.07120858
65	0xbd9c1687	-0.07621484
66	0x3cbccef4	0.023047902
67	0x3d004f7a	0.031325795
68	0xbe644ab9	-0.2229413
69	0xbd910644	-0.07081273
70	0xbd2d4140	-0.042298555
71	0xbbbd2817	-0.0057726013
72	0xbe0e85c7	-0.1391822
73	0x3ba74d75	0.005105669
74	0x3d2e256c	0.042516157
75	0xbdea033d	-0.11426399
76	0x3d7e6892	0.062111445
77	0xbdbf8a85	-0.093525924
78	0x3c86ea8a	0.016469259
79	0x3d78ab96	0.060710512
80	0xbd8bf7f6	-0.06834404
81	0x3e1399bd	0.14414115
82	0x3de44680	0.11146259
83	0xbd8ee722	-0.06977679
84	0x3e0ddde4	0.13854176
85	0x3cc5dda6	0.024153542
86	0x3da48f40	0.08035135
87	0x3dc3824b	0.09546336
88	0x3deaa147	0.114565425
89	0x3d6c646c	0.057712957
90	0xbda2c25e	-0.07947229
91	0xbdac478a	-0.084120825
92	0xbda40892	-0.08009447
93	0x3ba548c6	0.0050440757
94	0x3d7ddde0	0.061979175
95	0xbc358c7e	-0.011080859
96	0x3d555011	0.05207831
97	0xbd2baf42	-0.041915186
98	0xbcb8a126	-0.022537779
99	0x3d4b864e	0.04968863
100	0xbdd93526	-0.106058404
101	0xbda24ddc	-0.07925007
102	0x3bd0eaf9	0.006375667
103	0xbd9c7e7f	-0.07641315
104	0xbdcdb61b	-0.100444995
105	0xbd7541b5	-0.059877116
106	0x3d7a110e	0.06105142
107	0x3de857fa	0.11344905
108	0xbd41af4b	-0.047286313
109	0xbd77c428	-0.060489804
110	0x3d9344e9	0.07190878
111	0xbc7daf4a	-0.015483687
112	0xbda4beac	-0.0804418
113	0xbdc310d4	-0.09524694
114	0xbdd011e9	-0.10159666
115	0xbc44e396	-0.012017151
116	0xbd6e74a5	-0.05821671
117	0x3e161004	0.14654547
118	0xbd126c5b	-0.035747867
119	0x3db1ca88	0.08681208
120	0xbd9048c5	-0.0704513
121	0xbcf5c44a	-0.030000824
122	0x3c2e310a	0.010631809
123	0xbd6b6f71	-0.057479326
124	0x3d9988bb	0.074967824
125	0x3d25ff26	0.04052653
126	0x3b29ea7e	0.0025927122
127	0x3de39783	0.11112883

net.2.running_mean f4 [128]
0	0x3ec29fc1	0.38012508
1	0x3e247c32	0.16063002
2	0x3e189780	0.14901543
3	0x3d4360ae	0.047699623
4	0x3ea20304	0.31642926
5	0x3e69c5bf	0.2282934
6	0x3d9a3389	0.07529361
7	0x3d80c018	0.06286639
8	0x3e43f036	0.19134602
9	0x3f2476bb	0.6424367
10	0x3b6ff3d3	0.0036613836
11	0x3e14d45c	0.14534134
12	0x3d03576d	0.032065798
13	0x3dabde69	0.08392031
14	0x3e57900b	0.21051042
15	0x3dfd8ea8	0.12380725
16	0x3d2c4db3	0.042066287
17	0x3e5b5e0c	0.21422595
18	0x3d2b1291	0.041765753
19	0x3d661b45	0.05617835
20	0x3d03f7e4	0.03221883
21	0x3e6760ce	0.22595522
22	0x3dfbb372	0.12290086
23	0x3d90a36c	0.0706242
24	0x3ed00c7f	0.40634534
25	0x3db3c7b3	0.08778324
26	0x3ca4fd76	0.02014039
27	0x3d233ff0	0.039855897
28	0x3e11440d	0.14186116
29	0x3e90334b	0.28164133
30	0x3da87738	0.08225864
31	0x3e4c0685	0.19924362
32	0x3d7b5e82	0.061369427
33	0x3e4dcd46	0.20097837
34	0x3db770ca	0.0895706
35	0x3e720ca1	0.2363763
36	0x3ce8b24a	0.028405327
37	0x3bde832b	0.006790539
38	0x3e24a8f7	0.1608008
39	0x3db8b457	0.09018772
40	0x3d861eef	0.06548869
41	0x3bf067ae	0.0073365783
42	0x3e8b0ffc	0.27160633
43	0x3e4e1c86	0.20128068
44	0x3e3abe30	0.18236613
45	0x3e481525	0.19539316
46	0x3d91ced0	0.071195245
47	0x3e088a15	0.13333924
48	0x3e26db39	0.16294564
49	0x3e669c49	0.22520556
50	0x3e85ea19	0.26155165
51	0x3ded9380	0.11600399
52	0x3dd01edc	0.10162136
53	0x3de08550	0.10962927
54	0x3eac561e	0.33659452
55	0x3cd549f6	0.026036244
56	0x3d0e56ae	0.034750633
57	0x3e0dcacd	0.13846894
58	0x3c3f5a32	0.011679219
59	0x3df562e4	0.119817525
60	0x3df20912	0.11818136
61	0x3e5ae716	0.21377215
62	0x3dc34428	0.09534484
63	0x3da39cbe	0.079888806
64	0x3deb3c83	0.11486151
65	0x3d401e5c	0.046903953
66	0x3d2606b4	0.040533736
67	0x3df54147	0.11975341
68	0x3dc0bf1a	0.0941145
69	0x3df7706e	0.12081991
70	0x3e05d94e	0.13071176
71	0x3e117abf	0.1420698
72	0x3d9f774e	0.077864274
73	0x3e56c437	0.20973288
74	0x3d8eeba2	0.06978537
75	0x3deae3e9	0.11469252
76	0x3e1e1e32	0.15441206
77	0x3dbaf830	0.09129369
78	0x3da4e248	0.08050972
79	0x3d6c7152	0.05772526
80	0x3dd94402	0.106086746
81	0x3e32260f	0.1739733
82	0x3e7f5236	0.24933705
83	0x3eb9a4ee	0.36258644
84	0x3e92476d	0.2857012
85	0x3ddd05f4	0.10792151
86	0x3dbe0536	0.09278338
87	0x3e8fecaf	0.28110263
88	0x3e8ca907	0.27472708
89	0x3dbbc301	0.091680534
90	0x3d16d95b	0.03682838
91	0x3d8f9f10	0.07012761
92	0x3cb97b31	0.02264175
93	0x3e183ac0	0.14866161
94	0x3e2ffe51	0.17186858
95	0x3e54c582	0.20778468
96	0x3d2a3abe	0.041559927
97	0x3e21f89b	0.15817492
98	0x3e5431fa	0.2072219
99	0x3dab6842	0.08369495
100	0x3d5f8caa	0.054577507
101	0x3e2ff0db	0.17181723
102	0x3e2e273b	0.17007153
103	0x3e6e235e	0.23255679
104	0x3daff036	0.085907385
105	0x3e56adb5	0.20964701
106	0x3d7e06c2	0.062018164
107	0x3e1c41e9	0.15259518
108	0x3dd2cd31	0.102930434
109	0x3e669349	0.22517122
110	0x3dac4dca	0.084132746
111	0x3daa87bd	0.08326671
112	0x3e1b7805	0.15182503
113	0x3d38d00b	0.04512028
114	0x3da86f6f	0.08224379
115	0x3e7e237b	0.24818222
116	0x3d8fa03e	0.07012986
117	0x3e538b4b	0.20658605
118	0x3d9e8406	0.07740025
119	0x3ea01f16	0.31273717
120	0x3d685f0c	0.05673127
121	0x3d4cf952	0.050042458
122	0x3dc3b5a5	0.0955613
123	0x3e8def02	0.2772141
124	0x3ddc8c0b	0.107688986
125	0x3dd2ba4e	0.10289441
126	0x3cf75ba9	0.030195074
127	0x3e43c2e3	0.19117312

net.2.running_var f4 [128]
0	0x3df38d26	0.11892156
1	0x3d80b58e	0.06284629
2	0x3d35a845	0.044349927
3	0x3c73420a	0.014847288
4	0x3de12f2a	0.10995324
5	0x3dbccc94	0.09218708
6	0x3cb75124	0.022377558
7	0x3cbf5467	0.023355676
8	0x3d1e8e95	0.038710196
9	0x3ddb8aa7	0.10719805
10	0x3a508c63	0.00079554896
11	0x3d4fcb01	0.05073071
12	0x3c169db2	0.009192871
13	0x3cdb37d9	0.026760029
14	0x3d9bf8d1	0.07615817
15	0x3d42ea23	0.04758657
16	0x3c2fee61	0.010737986
17	0x3d885940	0.06657648
18	0x3c6d6c08	0.014491089
19	0x3cb666f3	0.022265887
20	0x3c17913b	0.009250934
21	0x3d920687	0.07130151
22	0x3d4d2878	0.050087422
23	0x3cb1e5d3	0.021716034
24	0x3db16765	0.08662299
25	0x3d0eb39a	0.03483925
26	0x3bb1630e	0.0054134196
27	0x3c574859	0.013139808
28	0x3d1e521c	0.038652524
29	0x3dcb9070	0.09939659
30	0x3d485e43	0.04891802
31	0x3da44f6e	0.080229625
32	0x3cb813fb	0.022470465
33	0x3da9f2bf	0.08298253
34	0x3d043c55	0.0322841
35	0x3d8f194e	0.06987248
36	0x3c09e417	0.008416197
37	0x3af96553	0.0019027389
38	0x3d3c0597	0.04590377
39	0x3d18e33b	0.03732608
40	0x3ce1d20b	0.027565977
41	0x3abd8fd9	0.0014462426
42	0x3d8b66d6	0.06806724
43	0x3d7d9ed7	0.06191906
44	0x3d6f55b1	0.05843133
45	0x3da71911	0.08159078
46	0x3cb61a65	0.022229383
47	0x3d4d3a81	0.05010462
48	0x3db3ceea	0.087797
49	0x3d8a12dd	0.06741879
50	0x3dbbbc31	0.09166754
51	0x3d17d028	0.037063748
52	0x3cfeea12	0.031117473
53	0x3ce4791b	0.027889779
54	0x3e03f7cb	0.12887494
55	0x3bdd12e5	0.006746637
56	0x3c2b4ee5	0.010455822
57	0x3d7c6315	0.06161793
58	0x3b540d16	0.0032356433
59	0x3d3763d6	0.044772945
60	0x3d4f7be2	0.050655253
61	0x3daf556a	0.08561213
62	0x3d1b651d	0.037938226
63	0x3c9823ad	0.018571699
64	0x3d38057b	0.0449271
65	0x3c4db0a5	0.012554322
66	0x3c5cb206	0.0134701785
67	0x3d2d7b22	0.042353757
68	0x3d0703ad	0.03296249
69	0x3d3d4f21	0.04621804
70	0x3d4579ff	0.048212048
71	0x3d5f8f96	0.054580294
72	0x3cb62b03	0.022237306
73	0x3dcd8c0f	0.1003648
74	0x3d244412	0.04010398
75	0x3d32d5f0	0.043661058
76	0x3d193aa1	0.03740943
77	0x3d11a92c	0.035561725
78	0x3cfec5f3	0.031100249
79	0x3ca9ad9d	0.020712668
80	0x3cfeb702	0.031093124
81	0x3d538215	0.051637728
82	0x3dc1fe4f	0.09472334
83	0x3de6e2cd	0.112737276
84	0x3dbea221	0.093082674
85	0x3d35c55a	0.044377662
86	0x3cb8d894	0.02256421
87	0x3dd37fc6	0.10327105
88	0x3dd00e5e	0.1015899
89	0x3d2664ce	0.04062348
90	0x3c305039	0.010761314
91	0x3cfe9ccb	0.031080624
92	0x3b9e9715	0.0048397877
93	0x3d9018d0	0.070359826
94	0x3d6e2ad1	0.0581463
95	0x3d759649	0.059957776
96	0x3c623f78	0.013809077
97	0x3d8ce7aa	0.06880124
98	0x3d5ba3ea	0.053623118
99	0x3cab2c06	0.020895015
100	0x3c8ed83d	0.017437095
101	0x3d8773b7	0.06613868
102	0x3d7e1730	0.062033832
103	0x3dcb153f	0.09916162
104	0x3d0066ee	0.03134816
105	0x3da9d04a	0.08291681
106	0x3c94e088	0.018173471
107	0x3d663b10	0.05620867
108	0x3ce231fc	0.027611725
109	0x3d8013b5	0.06253759
110	0x3cd71083	0.02625299
111	0x3d428643	0.047491323
112	0x3d622bea	0.05521766
113	0x3c83a40f	0.01606944
114	0x3cf85849	0.030315535
115	0x3dd3bc44	0.10338643
116	0x3ca641d6	0.020295065
117	0x3d8ee97f	0.069781296
118	0x3d061f10	0.032744467
119	0x3db0bbf7	0.086296014
120	0x3ca00846	0.019535195
121	0x3d0d6323	0.034518372
122	0x3d08d0c1	0.03340221
123	0x3da65e85	0.08123497
124	0x3d1ed8d7	0.038781013
125	0x3d607d46	0.05480697
126	0x3c5cf9c4	0.013487283
127	0x3d51153e	0.05104565

net.4.weight f4 [64, 128]
0	0xbd7c336f	-0.06157249
1	0xbd8dd487	-0.06925302
2	0xbdcbcb7b	-0.0995092
3	0x3d0a5a17	0.033777323
4	0x3c84477c	0.016147368
5	0xbdc2ded4	-0.09515157
6	0xbe3f7066	-0.1869522
7	0x3db456e7	0.08805638
8	0xbcae495d	-0.021275217
9	0xbbed58da	-0.007243258
10	0x3da7c0c2	0.081910625
11	0xbe3141fd	-0.17310329
12	0x3dba7d34	0.09105912
13	0xbdbe6746	-0.092970416
14	0xbcb0f50e	-0.021601226
15	0x3d3c7fc9	0.046020303
16	0xb90561da	-0.00012720321
17	0x3d8c039d	0.06836627
18	0xbdfac598	-0.12244719
19	0x3c82f3e3	0.015985435
20	0xbe181dd3	-0.14855127
21	0xbe3378b2	-0.1752651
22	0x3d49cadd	0.04926573
23	0xbd79eac2	-0.061014898
24	0xbde02931	-0.10945357
25	0xbda20818	-0.079117
26	0xbc20caac	-0.009813946
27	0x3dab5491	0.08365739
28	0x3d1aaad9	0.03776059
29	0x3df91c26	0.12163572
30	0x3d755d2a	0.0599033
31	0xbd1baabd	-0.038004626
32	0xbdc957ac	-0.09831175
33	0x3dac091d	0.08400176
34	0xbe10014c	-0.14062995
35	0xbb179c7d	-0.0023134046
36	0xbd2ce686	-0.04221203
37	0xbbb1aeee	-0.0054224646
38	0xbc798f3a	-0.015231902
39	0x3db614cc	0.088906854
40	0x3daae178	0.08343786
41	0xbdd2d881	-0.10295201
42	0x3d9c5735	0.07633821
43	0x3dc10f58	0.09426755
44	0xbd9966fa	-0.07490344
45	0x3d93ab7a	0.07210441
46	0xbdef8f27	-0.11697226
47	0xbd6a612b	-0.057221573
48	0x3d7f276d	0.06229346
49	0x3ca17cf3	0.0197129
50	0xbd8f3839	-0.069931455
51	0xbdcaccaf	-0.099023215
52	0xbc99e62e	-0.018786516
53	0x3dcab8c0	0.098985195
54	0xbd3f0f4d	-0.04664545
55	0xbdf006f6	-0.11720078
56	0x3dcd6ad7	0.10030144
57	0xbdda4ddc	-0.10659382
58	0x3d553a3d	0.052057493
59	0x3d6da7ae	0.05802124
60	0x3cf210a8	0.029548958
61	0xbd6fb5f6	-0.05852314
62	0xbd354bd2	-0.04426176
63	0xbd9a502a	-0.07534821
64	0xbdd79d81	-0.10528088
65	0xbd95f6d1	-0.07322467
66	0x3dd9781e	0.10618614
67	0xbdab574c	-0.0836626
68	0x3da723b5	0.081611075
69	0xbe0e1a00	-0.13877106
70	0xbb95efed	-0.0045757205
71	0xbdb31a82	-0.0874529
72	0xbbc3dceb	-0.005977263
73	0x3d19dbd3	0.037563156
74	0xbd4b2a54	-0.049600914
75	0xbd1e39b7	-0.03862926
76	0x3daa54d0	0.08316958
77	0x3d3236b7	0.04350921
78	0xbdb165b2	-0.08661975
79	0xbd9d54e9	-0.07682211
80	0xba85f213	-0.0010219238
81	0xbc08c6b7	-0.008348159
82	0xbdbff02a	-0.093719795
83	0x3d55ac31	0.052166168
84	0xbde3aa32	-0.111164466
85	0x3bc60c08	0.0060439147
86	0x3d1a494e	0.037667565
87	0xbdcb1b40	-0.09917307
88	0x3d776b05	0.060404796
89	0x3ce767b2	0.028247688
90	0xbd2f6b45	-0.04282691
91	0xbc56da04	-0.013113502
92	0xbd3f4a5d	-0.046701778
93	0xbdd213e7	-0.10257702
94	0x3daf81d9	0.08569688
95	0x3d88ac01	0.06673432
96	0x3d57aabb	0.052653056
97	0x3c4e6347	0.012596912
98	0x3d718540	0.058964968
99	0xbdebd1c7	-0.11514621
100	0xbdd8d93a	-0.10588308
101	0xbbebb890	-0.0071936324
102	0xbe41e0cb	-0.18933408
103	0xbe0020c6	-0.12512502
104	0xbdac4e52	-0.08413376
105	0x3d171759	0.0368875
106	0x3dbff666	0.09373169
107	0xbce12b52	-0.027486477
108	0xbdb76cec	-0.08956322
109	0x3cff6fcc	0.031181239
110	0xbe1114d5	-0.14168103
111	0x3ccf45df	0.025301872
112	0xbcf0facc	-0.029416464
113	0x3aa0617b	0.0012236083
114	0x3cf6b8c8	0.030117407
115	0xbbb4c3d6	-0.0055165095
116	0xbdc11e8c	-0.094296545
117	0x3d0fd1f6	0.035112344
118	0x3d7a0684	0.06104137
119	0xbd6ec05a	-0.05828891
120	0xbdf398a4	-0.11894348
121	0x3cbcc556	0.023043316
122	0xbdcda89f	-0.100419275
123	0xbd859979	-0.06523413
124	0xbdcba8a3	-0.09944274
125	0xbd83e314	-0.06439796
126	0xbca10292	-0.019654546
127	0x3d8b887f	0.06813144
128	0xbded1caa	-0.11577733
129	0x3cc29bf7	0.02375601
130	0x3a93ce9a	0.0011276782
131	0x3e486ee1	0.19573547
132	0xbc0c45da	-0.008561576
133	0x3b8733c2	0.004126043
134	0x3d51eab2	0.051249214
135	0xbd033644	-0.032034174
136	0xbd15cb0c	-0.036570594
137	0x3dea38aa	0.11436589
138	0xbd873320	-0.06601548
139	0xbe22c228	-0.15894377
140	0x3c5737ba	0.013135845
141	0xbdad7617	-0.084697895
142	0xbd99a37f	-0.075018875
143	0xbe3d6a49	-0.18497576
144	0x3db11dfc	0.08648297
145	0xbdbd6ec2	-0.09249641
146	0x3d45cbaa	0.048289932
147	0x3ddf91a8	0.109164536
148	0xbdf342d6	-0.11877982
149	0xbcea1716	-0.028575461
150	0xbce4e43b	-0.02794086
151	0x3dd3bb74	0.10338488
152	0xbd2eb598	-0.04265365
153	0xbe637782	-0.22213557
154	0xbe35a014	-0.17736846
155	0xbd1c9cd1	-0.03823549
156	0x3e20baac	0.1569621
157	0xbe0f57e1	-0.13998367
158	0xbe0ea1b7	-0.13928877
159	0x3e0096a9	0.12557472
160	0x3dbee2ae	0.093205795
161	0xbcc76355	-0.024339357
162	0xbd192e5d	-0.03739773
163	0xbc447ba0	-0.011992365
164	0xbdf0e8a7	-0.11763125
165	0xbd7455e7	-0.059652235
166	0xbe7acaa7	-0.24491368
167	0x3e02d462	0.1277633
168	0xbde26d2e	-0.110559806
169	0xbdd69cf8	-0.10479158
170	0x3c9d5129	0.01920374
171	0x3d30df9a	0.043181993
172	0xbd385952	-0.045007057
173	0xbc6d66ef	-0.014489873
174	0xbd96371c	-0.0733473
175	0xbc91ad1e	-0.017782744
176	0xbbd1d411	-0.006403454
177	0xbb7f3bd8	-0.0038945582
178	0xbe247831	-0.16061474
179	0x3d7808e3	0.06055535
180	0xbd5328e7	-0.05155268
181	0x3a62314d	0.0008628562
182	0x3dd65c29	0.10466797
183	0x3dbbe8ae	0.091752395
184	0x3da94e44	0.08266881
185	0x3d83d391	0.064368375
186	0xbc4cd996	-0.012503048
187	0xbd866435	-0.06562082
188	0xbce073a0	-0.027398884
189	0xbcbc1742	-0.022960309
190	0xbdda530f	-0.106603734
191	0xbe12bf29	-0.14330734
192	0xbe022ddd	-0.12712808
193	0xbd7081cc	-0.058717534
194	0x3cb9d46b	0.022684297
195	0xbe00f1c3	-0.12592225
196	0xbd005d32	-0.031338878
197	0xbc7772eb	-0.015103082
198	0x3ca49601	0.020091059
199	0x3c28f5bf	0.010312497
200	0xbd761d74	-0.060086682
201	0x3d4c5ac7	0.04989126
202	0x3de56655	0.11201159
203	0xbd53539c	-0.051593408
204	0x3d90fbc6	0.07079272
205	0xbd7b5082	-0.061356075
206	0x3db777fe	0.089584336
207	0xbd10e0d1	-0.03537065
208	0x3d90986c	0.07060322
209	0xbca00ada	-0.019536424
210	0xbe0d1c6f	-0.13780378
211	0xbd68ca2e	-0.05683344
212	0xbdb7635e	-0.089545
213	0xbc4047e8	-0.011735894
214	0x3e1eaf3f	0.15496539
215	0x3c45117c	0.012028094
216	0x3ceddb77	0.029035313
217	0xbdbba65b	-0.09162589
218	0x3d3b60f1	0.045746747
219	0xbd6dec0e	-0.058086447
220	0xbe74c489	-0.23903097
221	0x3cff2b82	0.031148676
222	0xbdfd9d69	-0.12383539
223	0xbe16f457	-0.14741646
224	0xbc3137be	-0.010816513
225	0xbe40de1c	-0.18834728
226	0x3c1be239	0.009514385
227	0x3b09c412	0.0021021408
228	0xbd73b61e	-0.059499852
229	0xbe2ce730	-0.16885066
230	0xbc9f7859	-0.019466566
231	0x3d2140af	0.039368328
232	0x3c35c3cd	0.011094046
233	0x3d2d658f	0.042333182
234	0xbd99bb8b	-0.07506474
235	0x3d0e4da3	0.03474201
236	0xbe00e6da	-0.12588063
237	0x3c9d019c	0.019165806
238	0xbd105bdd	-0.035243858
239	0x3d07d46b	0.033161562
240	0xbde788e5	-0.113054074
241	0xbdf07b4f	-0.11742269
242	0xbdeb8299	-0.11499519
243	0xbe3b7226	-0.18305263
244	0xbc99570e	-0.018718269
245	0xbbfcbf4a	-0.007713233
246	0x3cfa4d64	0.03055448
247	0xbdce2101	-0.10064889
248	0xbd7de869	-0.06198922
249	0xbd56ad3b	-0.0524113
250	0xbe3313c5	-0.1748801
251	0xbdcfdb23	-0.10149219
252	0xbd93f9f5	-0.0722541
253	0xbcaec72d	-0.021335209
254	0xbd859328	-0.065222085
255	0x3d91d3e4	0.07120493

net.4.bias f4 [64]
0	0xba4e45a8	-0.0007868656
1	0x3dd23522	0.102640405
2	0xbc0745cb	-0.008256386
3	0xbd7eb611	-0.06218535
4	0x3c732323	0.01483992
5	0xbc6e3aa9	-0.014540353
6	0x3d5b602a	0.053558506
7	0x3e0da588	0.13832676
8	0xbcf0d1ad	-0.029396856
9	0x3e1ad6ff	0.15121077
10	0xbd4743e4	-0.04864873
11	0x3da9b9d4	0.08287397
12	0xbd3b5812	-0.045738287
13	0x3e4d6cbc	0.2006101
14	0x3e006a81	0.12540628
15	0x3d843e75	0.06457225
16	0x3d90d8f0	0.070726275
17	0x3da0bf71	0.078490146
18	0x3d53ce09	0.051710162
19	0x3db7d681	0.0897646
20	0x3d9fe637	0.07807582
21	0x3e0014df	0.12507962
22	0x3d3ef6c8	0.046622068
23	0x3dc710ad	0.097199775
24	0x3e1f3fed	0.1555173
25	0x3d8fc247	0.07019477
26	0x3e0dbad5	0.13840802
27	0x3caaf2a1	0.020867648
28	0x3d040b53	0.032237362
29	0x3d6b771b	0.057486635
30	0x3d955226	0.07291059
31	0xbdded022	-0.10879542
32	0x3d676296	0.056490503
33	0xbd830edc	-0.063993186
34	0x3de0acf4	0.10970488
35	0x3da0e64a	0.07856424
36	0xbcd71b85	-0.02625824
37	0x3d950af4	0.0727748
38	0x3d80b495	0.06284443
39	0x3d6f07d1	0.058357064
40	0xbd79f519	-0.06102476
41	0xbd2a18ee	-0.04152768
42	0x3d9d3449	0.07675988
43	0xbceacec2	-0.028663043
44	0x3e0dd020	0.13848925
45	0x3da9fe26	0.08300428
46	0x3decc821	0.11561609
47	0x3dbeca5d	0.093159415
48	0x3dd8d667	0.10587769
49	0x3bc66d01	0.0060554747
50	0xb9afd026	-0.00033533684
51	0x3d049874	0.032371953
52	0x3d59a5dc	0.05313669
53	0xbd0f9f9c	-0.035064325
54	0x3cfc4b9e	0.030797776
55	0x3ddd9839	0.1082005
56	0x3db32572	0.087473765
57	0xbce543d5	-0.027986446
58	0x3d8e688f	0.06953537
59	0xbccfcc45	-0.025365958
60	0x3cc59d5c	0.024122886
61	0xbdde9f5b	-0.108702384
62	0x3d38dfb7	0.045135226
63	0x3d6a84b3	0.057255458

net.7.weight f4 [1, 64]
0	0xbe64a4f3	-0.22328548
1	0xbe0670ce	-0.13128969
2	0xbe4521ea	-0.19251218
3	0x3ddc6db3	0.10763111
4	0xbe0a0c68	-0.13481295
5	0xbe393c30	-0.18089366
6	0xbe58d5a4	-0.21175247
7	0xbe29b40a	-0.16572586
8	0x3ddc2140	0.107485294
9	0xbe25d6f8	-0.16195285
10	0x3df1898b	0.11793812
11	0xbe051b99	-0.12998809
12	0x3ddcc0db	0.10778972
13	0xbe4997ba	-0.19686785
14	0xbe148230	-0.14502788
15	0xbdf22fa1	-0.11825491
16	0x3db04805	0.08607487
17	0xbe34781c	-0.17623943
18	0xbe43c3e3	-0.19117694
19	0xbe216a9d	-0.15763326
20	0xbe80920a	-0.2511142
21	0xbe38bd14	-0.18040878
22	0xbe1efe53	-0.15526704
23	0xbe6d27d0	-0.23159719
24	0xbe1e6838	-0.15469444
25	0xbe3a5352	-0.18195847
26	0xbde25757	-0.11051815
27	0x3e0c83e0	0.13722181
28	0x3e0184fc	0.12648386
29	0xbe4de0ed	-0.20105334
30	0xbe101d75	-0.14073737
31	0x3e2a06ef	0.16604207
32	0x3df5f832	0.1201023
33	0x3ddb4743	0.107069515
34	0xbe155f37	-0.14587103
35	0xbde70f41	-0.11282206
36	0xbe1e74a0	-0.15474176
37	0x3e03025c	0.12793869
38	0x3e147ab2	0.1449993
39	0x3e029b1e	0.12754485
40	0x3e14565a	0.14486066
41	0xbdc01d01	-0.09380532
42	0xbd8de701	-0.06928826
43	0xbe16cf5c	-0.14727539
44	0xbe5476cc	-0.20748442
45	0xbdf40cf6	-0.119165346
46	0xbe47ece9	-0.19523968
47	0xbe2f171d	-0.17098661
48	0xbdfb604d	-0.12274227
49	0x3de26a7b	0.11055466
50	0xbe798fb7	-0.24371229
51	0x3de4f016	0.11178605
52	0xbe0dc824	-0.13845879
53	0xbe072aea	-0.13199964
54	0xbe494a78	-0.19657314
55	0xbe4adad1	-0.19810034
56	0xbe560140	-0.20898914
57	0xbe3972d5	-0.18110211
58	0x3d0166f7	0.031592336
59	0x3e0cd1bc	0.13751882
60	0x3dd08cb1	0.10183085
61	0xbdf2d140	-0.118563175
62	0x3dff68e7	0.124711804
63	0xbe623ed5	-0.22094281
