models/pytorch_model_final.pth (torch, 62542 bytes, 9 tensors)

net.0.weight f4 [128, 43]
00000000: 05d4 2f3d ca37 1a3d 53a5 25bd 3781 433d
00000010: 362c a53c cd51 32bd edf1 16be 9112 d0bc
00000020: 78a6 c0bc 57c3 1e3e 880c 663d 7ea4 1fbd
00000030: bc93 bd3d 8210 233d 3b3a 483d 7aed 3f3d
00000040: c195 c2bc 2640 323d fbb2 86bb 76ed 25bd
00000050: f640 0bbd 661d 0d3e 73e7 50be aae7 57bd
00000060: 0a49 873d e998 c83d 9d79 813d cabb 2b3e
00000070: cab9 1abe 8102 b63d 3a66 9bbd fec9 a5bd
00000080: 56fc c33d ed08 213e 0f34 b53d 601a 523d
00000090: cfc8 afbc e8b5 9239 44d3 0abe 6ef3 8a3d
000000a0: 8aab 123e 41aa babd a78a 583d 8066 be3b
000000b0: 7285 253c 1672 6d3c 5008 2cbe b848 503d
000000c0: 32d6 633d f702 dc3d 8dd6 85bd c9a1 a9bd
000000d0: 075e 6b3d 04eb 4c3e 29ee 7abd d142 47be
000000e0: be95 08bd bc83 d43d 804c 63bd 1f11 2e3d
000000f0: 0ebf 18bd 6b58 633d 2b03 733c b9fe ffbd
00000100: fde7 c33d 86da 333c 9107 823d 606c a13d
00000110: deff a63c 2bec 13be d3f5 58bd c03a 60bd
00000120: d75b e7bd c784 633d c044 bcbd a98b 883d
00000130: 890f 513d b665 7cbd 45ed 813d 03ca 4f3d
00000140: 394c 50bc 5043 07bd 7335 913d dfb7 be3c
00000150: d0a1 f63d d015 a83d 0e2e 8a3d c01f e33d
00000160: 3525 d7bd ae8f d6bc eb20 f1bc 11f0 6f3d
00000170: 7c9c ea3c f626 f43d 3fae 093d 43a8 dabd
00000180: 5f22 383e f352 5cbe 1dec cc3d 7bc4 b8bc
00000190: f0c5 27be adcc e33d 0824 853d 041a 8e3c
000001a0: 4975 c9bd 912e e53d 4fa0 973d 1b77 a73d
000001b0: f397 06be 0ec8 cbbd a155 153e 2836 27be
000001c0: 65e1 debd c2ca 2d3d 06ed ac3d 527a 1fbe
000001d0: 9725 dfbc 6c41 b23c 5b28 663c f3c7 a93d
000001e0: 6514 8cbc 2938 e83c e63c 4d3b cc30 18bd
000001f0: 5a39 afbd 1e0a 9cbd 459f d8bd 7f12 bc3d
00000200: b4cc 1ebd 7a6d 61bc 3c0c 9f3b 3fff 2ebd
00000210: df1f c53c 30a8 a5bd 0da6 65be 2c32 ecbc
00000220: b11f 0c3d f9ec 2b3b 5fdb 8bbc f80f 5abe
00000230: 972b 50bd 8787 413d f281 893b 886f 66bc
00000240: 47dd 6b3d c006 c6bd 1e8c 6bbd 8538 f7bd
00000250: 7eec 2a3e 7f10 14bb 620e 073d 6ac6 47bd
00000260: e63b 463e 4587 eabd 1d45 d23d b715 90bc
00000270: 36d9 2cbd 38df f0bd 064d a0bd c8f6 8cbd
00000280: c63e 48bd 75ce 243d 5a21 483d 71b3 29be
00000290: 769c a43c fb71 37bc 4dea c33d de28 7b3d
000002a0: 43e4 4f3d eb11 35bb 3eb8 a63d e90b f33c
000002b0: d134 2dbd aa8c 8cbc e518 6b3d 064c b4bd
000002c0: dde8 f4bb b49e 80bd cc16 c3bd 29f8 8cbb
000002d0: f8d1 7fbd f519 6abd 9e02 aa3c 5821 af3e
000002e0: 89cb 403c bb4b 3ebc 0737 a8bc 083e 9e3d
000002f0: 42bb 133d fd81 bcbd ef57 793d c60f 04bc
00000300: 8b55 aa3d 1834 7f3d 1b3c aa3d 7a2c 35be
00000310: 5671 38bc 340b 9ebd 40e5 413d fff3 943d
00000320: 9bcc f63d 1c33 0c3e afde 6b3d e003 873c
00000330: ccb4 d9bd 28ec c63d dca9 da3d 540e 103e
00000340: b52e 8ebd 9052 1a3e c4b7 053d 6977 e03d
00000350: 69d0 09bd 8674 0fbc 76b3 2c3e f23f 2c3d
00000360: 0d2a f43d 43fc 13bb 271c 80bd 8b1c aa3d
00000370: baff 0bbe 7178 b93d 13c8 dd3d 85de 8bbd
00000380: 2fb1 47bd b036 56bb be72 513e bd63 323c
00000390: a987 1a3e 2e9a b2bd 4dbf 0cbd 4e31 b93d
000003a0: 5344 053e b3f0 03be 2217 4a3c 1efa 9c3d
000003b0: c748 efb9 bc30 093e ccfd 0ebd d49d 833d
000003c0: df07 043e 0bd4 133e 35dc f43d 23bf 8b3d
000003d0: 5662 41be 4658 3a3d f1ac 553c 6744 703d
000003e0: 1925 95bd 8db7 07be e7b2 123e 7beb 39bd
000003f0: 3bcc 22be 0d93 88bc 33de c43b 61a7 ce3d
0.042926807 0.03765086 -0.04044087 0.04773065 0.020162683 -0.043535043 -0.14740725 -0.025399478
-0.023516878 0.15504204 0.056164294 -0.03897523 0.09256694 0.039810665 0.048883658 0.046857335
-0.023753049 0.043518208 -0.0041106916 -0.040509664 -0.0339975 0.13780746 -0.20400791 -0.052711166
0.06605728 0.0979479 0.06322024 0.16770855 -0.15109935 0.08887196 -0.075878575 -0.080951676
0.09569614 0.15726061 0.0884782 0.051294684 -0.021458058 0.0002798282 -0.13557154 0.06784712
0.1432325 -0.091145046 0.052866604 0.005810559 0.010102617 0.014492532 -0.16800046 0.0508506
0.055624194 0.10742753 -0.06535063 -0.08282811 0.05746272 0.20011526 -0.061262283 -0.19459082
-0.03334593 0.10376689 -0.055492878 0.042496797 -0.03729158 0.055504244 0.014832298 -0.12499756
0.09565733 0.010977393 0.063490994 0.07881999 0.020385679 -0.1444556 -0.05296881 -0.05474353
-0.11296814 0.05554655 -0.091928005 0.06667263 0.051040206 -0.061620437 0.06344084 0.050729763
-0.012713485 -0.03302318 0.07090273 0.023281036 0.12042582 0.082072854 0.067470655 0.1109004
-0.105051436 -0.026191559 -0.029434642 0.058578555 0.02863907 0.11921494 0.03361344 -0.106766246
0.17981862 -0.21516018 0.100059725 -0.022554627 -0.16384101 0.11123023 0.06501013 0.01734639
-0.098368235 0.111905225 0.07403623 0.081770144 -0.13143902 -0.09950267 0.14583446 -0.16329253
-0.10882834 0.042429693 0.08443646 -0.15574005 -0.027239604 0.021759711 0.014047707 0.082900904
-0.017099569 0.028347092 0.0031316816 -0.03715591 -0.08555861 -0.07619117 -0.10577253 0.09183215
-0.03876944 -0.013759011 0.0048537534 -0.04272389 0.024063049 -0.0808872 -0.22426625 -0.028832518
0.03420991 0.0026233776 -0.017072378 -0.21295154 -0.05082282 0.04724839 0.004196399 -0.014064677
0.057584073 -0.09669256 -0.057506673 -0.12071327 0.16691777 -0.002259284 0.0329727 -0.048773207
0.19358787 -0.11451582 0.102670886 -0.01758848 -0.042199336 -0.117613256 -0.07827191 -0.06883007
-0.04888799 0.040235955 0.04885993 -0.16572358 0.020094138 -0.011196609 0.09566174 0.06131827
0.050754797 -0.0027629088 0.0814061 0.029668765 -0.042286698 -0.017156918 0.05739679 -0.08803563
-0.0074740485 -0.0628027 -0.095258325 -0.004302044 -0.0624561 -0.05715366 0.020753201 0.34205127
0.011767277 -0.011614735 -0.020534052 0.07726675 0.036067255 -0.09204481 0.060874876 -0.008060401
0.08317097 0.06230554 0.083122455 -0.17692748 -0.01125749 -0.077169806 0.04733777 0.07273101
0.12050744 0.13691372 0.057585414 0.01648134 -0.106301874 0.09713012 0.10676929 0.14067966
-0.069425024 0.15070558 0.032645956 0.10960276 -0.03364602 -0.008755809 0.16865334 0.04205317
0.11922083 -0.002258078 -0.0625537 0.083062254 -0.1367177 0.090561755 0.10829177 -0.068295516
-0.04875296 -0.0032686405 0.20453927 0.010888037 0.15090813 -0.08720814 -0.034362126 0.09042607
0.13014345 -0.12884788 0.012334617 0.076648936 -0.00045639856 0.13397497 -0.03491001 0.06426588
0.12893628 0.14436357 0.11956064 0.06823566 -0.18885168 0.04549434 0.013041721 0.058658984
-0.072824664 -0.13253613 0.14326058 -0.045390587 -0.1589822 -0.016671682 0.0060079335 0.10090519

net.0.bias f4 [128]
00000000: 74fc 193e 743e edbd 0dc8 64bc 126c 15be
00000010: e5d3 803d 1eaf fdbd 1b15 fdba d324 0f3c
00000020: 2224 31bc a7f8 073e 1979 1ebe d84b 143d
00000030: dca4 0bbe cfb5 eabd 3e06 003c 71b3 d6bd
00000040: 5158 21be 4c1e aa3d 10a5 25be 82fb 22be
00000050: 39ba 72bd e050 e83d b583 f43c 757c c0bd
00000060: 112d 343e c8ac a23c d4ab 44be d513 0a3c
00000070: ff12 3b3d 355c 9abd ec5c 7fbd a848 be3d
00000080: 45bb 813d a01e 813c aa57 88bd 49b3 27bd
00000090: 3e21 39be 19fa 3cbe 0b26 8d3d 5437 9b3d
000000a0: 2e72 bdbd 5f7b 01be aea8 b73d ecdc 07be
000000b0: ae06 64bd b622 20bd 2b40 e93c 39ba 43be
000000c0: 98bf 983c 38e5 db3d 04a6 23bd b1c0 a0bc
000000d0: 31ea 593b 896d 0fbe 996b c83d 0a67 60be
000000e0: 5119 45be 2389 2a3d ebc1 1abe 4fa7 b2bc
000000f0: dafb 7fbd bdd1 963d 3062 e4bd 2096 413d
00000100: c59b 8ebd 55de 1fbe fd3a bbbd abd9 a2bc
00000110: ea86 39be 2583 d23c 7652 4b3c a074 623d
00000120: f276 47bc 7116 f23d ea96 ffbc 03e0 b6bd
00000130: f97e 383d 62d9 2fbd 8906 e43b 28da 0dbe
00000140: 1649 fbbd 680e 6c3d 29eb 123d 8264 113e
00000150: 83d7 353d 263e 903d ba26 0b3e e6f9 8c3d
00000160: 52ba bf3d ea8c f9bd 15bc 00be dc52 44be
00000170: f033 2dbe 9448 3f3c 9a41 15bd 12e8 053e
00000180: 7610 22be eeb8 eb3c e977 1abc 9caf 14be
00000190: 5f03 d6bd 9313 52bd 4dda c83d b767 883d
000001a0: 70a1 da3b 49d9 95bd 5d42 4abe 3ab1 dcbd
000001b0: 40d2 24bd 3839 87bd fb26 10be 73f1 74bb
000001c0: 7d0b ed3d 2668 9ebd 03c7 e5bd 88a5 b73d
000001d0: 1845 03be 25e5 803d 419d 1cbd 2da7 9f3d
000001e0: 766d 3ebe 5a68 91bd 37db 753d b0df 9f3d
000001f0: 0862 5fbc 1ae9 d33d 4f65 68bd 87f8 86bd
0.1503771 -0.115841776 -0.013963711 -0.14592007 0.06290416 -0.123869166 -0.0019308658 0.008736807
-0.010811837 0.13278447 -0.15475883 0.036205143 -0.13637108 -0.114604585 0.007813988 -0.104834445
-0.15756346 0.0830656 -0.16176248 -0.15916255 -0.059259627 0.11343551 0.029847959 -0.09398738
0.17595316 0.01985778 -0.19206172 0.00842758 0.045672413 -0.07537118 -0.062344477 0.09291202
0.06334547 0.015761673 -0.066573456 -0.040942464 -0.18079087 -0.1845478 0.06892022 0.075789124
-0.09250294 -0.12644719 0.0896772 -0.13267869 -0.055670433 -0.039095603 0.02847298 -0.19114007
0.018646047 0.107370794 -0.039953247 -0.019623132 0.0033251161 -0.14006628 0.097861476 -0.21914306
-0.19247939 0.04163469 -0.15113036 -0.021808295 -0.062496044 0.07364223 -0.1115154 0.04726231
-0.069633044 -0.15612157 -0.091421105 -0.019879183 -0.18117872 0.0256973 0.012409797 0.055287004
-0.012174355 0.118206866 -0.031199891 -0.089294456 0.045042966 -0.04293192 0.006958787 -0.13852751
-0.122697994 0.057630926 0.035868797 0.14198497 0.04439498 0.07043104 0.13588992 0.06883602
0.0936171 -0.1218508 -0.12571748 -0.19172233 -0.16914344 0.011675019 -0.036439516 0.13076809
-0.15826592 0.028774705 -0.009428003 -0.14520115 -0.10449862 -0.0512882 0.098072626 0.06660407
0.006672077 -0.073168345 -0.19751878 -0.10775991 -0.040239573 -0.066027105 -0.1407737 -0.003737536
0.11574457 -0.077347085 -0.11219599 0.089671195 -0.12819326 0.06293706 -0.038235907 0.07795558
-0.18596444 -0.070999816 0.060023513 0.07806337 -0.013634212 0.10347195 -0.05673724 -0.065903716

net.2.weight f4 [128]
00000000: 618d 783f 2dfb 883f 5344 883f 017f 933f
00000010: 38da 8a3f 71b8 873f c020 9e3f fc69 a23f
00000020: c9a5 843f 8156 7b3f 8433 8f3f db10 a13f
00000030: 67df 913f e82c 8a3f b159 853f 4575 883f
00000040: 8e96 8f3f b574 853f 4fa3 8a3f 0d31 973f
00000050: d426 8c3f f85d 8f3f cd2a 883f e58d 7e3f
00000060: 9ab3 873f 612e 943f 9d0d 8e3f a87c 893f
00000070: 2395 8d3f 20e0 823f 0841 9f3f db9a 853f
00000080: cd9f 913f e3bf 873f 411a 963f 17f4 773f
00000090: c9e9 8c3f 82b5 8f3f 4884 9c3f 2162 983f
000000a0: 2387 9d3f edfc 8c3f c0b9 873f c183 873f
000000b0: c2c7 893f 85ef 823f dd91 8d3f c8d7 8f3f
000000c0: 3553 843f 3651 903f ebc5 813f a909 8c3f
000000d0: eb03 863f 6de7 883f b8e3 873f ca13 a33f
000000e0: 6ec9 883f f883 903f b474 8d3f d42a 8e3f
000000f0: eff6 863f a700 853f f0da 823f e3a9 883f
00000100: dfe7 983f 39ab 883f 5dc3 963f f311 8d3f
00000110: 9075 9e3f 5245 873f 323c 883f 3f35 893f
00000120: 0bf2 853f bcc8 8a3f b452 a23f 7422 9d3f
00000130: d581 8c3f ee94 883f 5261 9f3f ee64 913f
00000140: d7e3 8c3f 8a82 923f 1549 9b3f 9dab 843f
00000150: 3026 8e3f 34e9 8d3f d45e 903f 9525 863f
00000160: 914c 853f e973 8a3f 34c4 8c3f cad1 8e3f
00000170: 5d83 8b3f 3371 913f 03f0 803f 705d 8c3f
00000180: bca7 853f cbc6 993f 43d8 843f 19f3 873f
00000190: 1704 893f 5bee 8a3f 2a43 893f 59aa 853f
000001a0: 8d42 853f a05c 803f 85dc 9a3f 520c 8d3f
000001b0: e93b 8a3f a369 8a3f 3cb0 893f 63b1 863f
000001c0: a58b 863f cf5f 853f dbd8 9d3f 7f42 8b3f
000001d0: 5b8e 893f 60c7 8c3f d161 953f ec76 863f
000001e0: 9dfd 8a3f 7080 943f 8205 8f3f 08a7 873f
000001f0: 9716 923f 7c4c 8a3f d304 8d3f c929 8b3f
0.9709073 1.0701653 1.0645851 1.1523134 1.0847845 1.0603162 1.2353745 1.2688594
1.0363094 0.9817887 1.1187596 1.2583269 1.1396302 1.0794954 1.0417997 1.0660788
1.1217821 1.0426241 1.0831088 1.1811844 1.0949349 1.1200552 1.0638062 0.99435264
1.0601685 1.1576654 1.1097904 1.0741167 1.1061138 1.0224648 1.2441721 1.0437883
1.1376892 1.0605434 1.1726762 0.96856827 1.1008846 1.1227267 1.2227869 1.1904947
1.2306865 1.1014687 1.0603561 1.0587083 1.0764086 1.0229346 1.1060139 1.1237726
1.0337893 1.1274784 1.0138525 1.0940448 1.0469946 1.0695626 1.0616369 1.2740414
1.0686471 1.1290274 1.105124 1.110682 1.0544108 1.0390824 1.0223064 1.0676845
1.1945761 1.0677253 1.177837 1.1021103 1.2379627 1.056803 1.064337 1.0719374
1.0464491 1.0842509 1.2681489 1.2276139 1.0977122 1.067045 1.2451575 1.1358926
1.1007031 1.1446087 1.2131678 1.0364872 1.1105404 1.1086793 1.1278939 1.0480219
1.0413991 1.0816623 1.0997376 1.1157773 1.0899464 1.1362671 1.0073246 1.0966015
1.0441813 1.2013792 1.0378498 1.0621063 1.0704373 1.085399 1.0723622 1.0442611
1.0410935 1.0028267 1.2098547 1.1019385 1.0799533 1.0813488 1.0756907 1.0522884
1.0511366 1.0419863 1.2331804 1.0879668 1.0746568 1.0998344 1.1670476 1.0505042
1.0858647 1.1601696 1.1173556 1.0597849 1.1413144 1.0804591 1.1017097 1.0872127

net.2.bias f4 [128]
00000000: 500f 6e3d 6d48 08bd 39b8 aebd f4da 593c
00000010: 301d e73d db3f 1b3d d8b8 ca3d 18d0 86bd
00000020: 835f bcbd 4888 a83d b7b9 41bd 8a5b c13d
00000030: 760a b43c 1e3c 8bbd ae15 a4bd c16c 81bd
00000040: bc76 5b3d a0b8 933d d215 7cbd ceb5 2e3d
00000050: 8690 00bd 130d e53d 9902 193d c048 7abd
00000060: d2ce 813d 3493 9abc 2896 06bc 464a b6bd
00000070: 19b2 ba3d 6fcf ee3b 2862 62ba 7fae ab3c
00000080: 4fd0 afbc 7c2f 17bd e97d 163d f699 913d
00000090: 5820 dfbc f384 87bd 4193 3e3c 3480 a33d
000000a0: 0338 2f3d 6077 c9bd 443b 74bd f385 b53d
000000b0: b35b 9b3d 9f2f b23b bfc2 99bb cc4e 9bbd
000000c0: c2b7 533d cae2 f23d 81a0 d8bc e4ff 053e
000000d0: dc06 87bd b954 8d3c adc0 063e e79a 113e
000000e0: a950 2d3c a15d 07bc cc7c 4b3c fc5b 823c
000000f0: 68bf 03bd bab2 c1bd aee7 c0bd 0a5e 49bd
00000100: ab51 9bbd ed2e 98bd 02af fc3c 18ff f53c
00000110: f3e1 71be b8b4 89bd ff81 09bd 90dd 42bc
00000120: f3b2 0fbe cb36 9a3a 7939 5a3d 1e47 e8bd
00000130: 9524 7e3d ee38 bfbd 03b5 d53c 5d9b 7d3d
00000140: 2083 90bd ce64 1d3e c71c f53d 60d6 9bbd
00000150: 9e53 133e 74ce c73c b60a a63d f8c2 d03d
00000160: fe3d f53d 4ca3 823d 1ae1 b2bd 789b abbd
00000170: 849e 96bd d526 5dba b519 8f3d 9271 53bb
00000180: bd91 4f3d ae2a 3dbd 82d7 debc 2bae 643d
00000190: 7036 d5bd fbab acbd 1dee 1e3c 1218 a0bd
000001a0: 7c0a d8bd 4758 6fbd 4b62 853d a957 ec3d
000001b0: a532 3ebd 97cd 5dbd 8812 963d b9fb 0cbc
000001c0: 8efb 9fbd 2b72 babd 6e48 debd 5c24 5abc
000001d0: 6892 78bd a0bf 1a3e 90db 14bd 14e4 b73d
000001e0: 8c0b 8dbd 68ac 2bbd 07b4 9e3c fdde 5fbd
000001f0: 5c70 993d b162 423d c067 133b 9a5f f13d
0.058120072 -0.033272196 -0.085312314 0.013296831 0.11284864 0.037902694 0.098985374 -0.065826595
-0.09197905 0.082291186 -0.047296252 0.09441288 0.021977644 -0.06798576 -0.080119476 -0.06319571
0.05358003 0.07212949 -0.061544247 0.04265385 -0.03138783 0.11184134 0.037355993 -0.061104536
0.06338276 -0.01886902 -0.008214511 -0.08900885 0.09116001 0.0072879116 -0.0008635842 0.02095723
-0.021461634 -0.03691052 0.03674117 0.07109444 -0.027237102 -0.06617155 0.011631788 0.07983437
0.042778026 -0.09837222 -0.059626833 0.088634394 0.075858496 0.005437806 -0.004692405 -0.07583389
0.051688917 0.11859663 -0.026443722 0.13085896 -0.06593105 0.017252313 0.13159437 0.14219247
0.010578313 -0.008262069 0.012419891 0.015913002 -0.03216496 -0.094579175 -0.094191894 -0.04916195
-0.07583936 -0.074308254 0.030845169 0.030028865 -0.23621349 -0.067239225 -0.03357124 -0.011893645
-0.14033107 0.0011765597 0.053277466 -0.113416895 0.062046606 -0.0933703 0.02608729 0.061915744
-0.0705626 0.15370485 0.119683795 -0.07609248 0.14387366 0.024390437 0.08107512 0.10193437
0.11974715 0.06378803 -0.08734341 -0.08379263 -0.07354453 -0.00084362674 0.06987325 -0.0032263738
0.050676096 -0.04618328 -0.027202372 0.055830162 -0.10410774 -0.0843124 0.009700325 -0.07817091
-0.10548875 -0.058433797 0.065128885 0.11540157 -0.046435017 -0.054151144 0.07327753 -0.008604937
-0.07811652 -0.09103807 -0.108536586 -0.013314333 -0.0606865 0.15112162 -0.036342204 0.08979049
-0.06886968 -0.041912466 0.019372953 -0.054656018 0.07492134 0.0474574 0.002249226 0.11785813

net.2.running_mean f4 [128]
00000000: 25e2 b83e 05ed 1a3e dd7f 083e a4c8 233d
00000010: eaea 9a3e 3032 673e b792 a03d aa1b 7b3d
00000020: 3a3f 3a3e de66 243f 8e54 9f3b fac6 1f3e
00000030: 58a7 1e3d 5853 b23d 1662 523e 7702 fb3d
00000040: 027d 783d b0cf 613e f1c4 223d 5c40 563d
00000050: 4af4 ea3c 8048 5e3e 1135 ff3d d3df 923d
00000060: 66e6 d63e a3fe b13d 0013 bf3c 3c3f 073d
00000070: 5f0b 143e aff2 933e ad2c ac3d 48d2 473e
00000080: bb23 853d 1a97 4c3e 9027 ac3d df73 6e3e
00000090: 4893 e03c 8dcc dd3b cb02 2d3e d1ae cc3d
000000a0: 9b08 933d 06f0 f63b 81ad 883e b870 543e
000000b0: 4646 313e 7b7b 383e 5c25 8c3d 2b5f 0c3e
000000c0: da16 263e 0b87 5b3e 700b 843e b129 ef3d
000000d0: 35bf c33d f7e0 df3d 8d8d ac3e 985e b63c
000000e0: 5e64 243d 0a32 213e e180 2b3c d808 023e
000000f0: 6efc 003e 38d3 5d3e 4028 993d ed09 a73d
00000100: e3dd b83d 7b54 1d3d 7ad4 033d 7665 f23d
00000110: fc38 bf3d 78e6 e23d 04be 0d3e 3f7a 0c3e
00000120: c73a 913d 325a 563e 65ea 933d e389 f23d
00000130: 7607 253e e06b cd3d f294 a63d fc9d 793d
00000140: b8d4 b23d 9a78 3f3e 33c4 853e 2699 bb3e
00000150: 55c7 8e3e 4c6a d53d 9ffe ab3d 027f 893e
00000160: 6ee7 903e e030 933d 10fb 3a3d ef50 913d
00000170: 1978 ca3c 57a7 1c3e 17db 2c3e b50d 543e
00000180: 494c 513d 8315 1a3e f9f5 3f3e 5a7c a43d
00000190: 074d 573d a331 2b3e ba0c 1a3e b636 6e3e
000001a0: c4c9 b43d 2197 493e 639c 913d f443 333e
000001b0: a068 cf3d 2e54 4f3e a3a7 a43d 487d b63d
000001c0: 3c04 223e bebd 213d 4514 7c3d bb6d 7f3e
000001d0: 0ca1 983d 9f86 523e 9d97 963d e326 a53e
000001e0: 3f9c 633d 226d 553d 6cd5 c23d 4a90 903e
000001f0: cd40 d63d 1e1e da3d 6ca2 0e3d 6039 473e
0.36110035 0.15129478 0.13330026 0.039986268 0.3025735 0.22577739 0.07840484 0.06130568
0.18188182 0.6421946 0.0048623746 0.15603247 0.03873381 0.08707303 0.2054523 0.122563295
0.06066609 0.22051883 0.0397386 0.05230747 0.02868094 0.21707344 0.124612935 0.07171597
0.41972655 0.08691146 0.02332449 0.03301929 0.14457463 0.2889609 0.08406959 0.1951381
0.06500956 0.19979516 0.084059834 0.23286389 0.02741398 0.006768769 0.16895597 0.09994281
0.07179376 0.0075359372 0.26694873 0.20746124 0.17311963 0.18015854 0.06843063 0.13708179
0.16219655 0.21438234 0.25789976 0.11677874 0.09557954 0.109315805 0.33701745 0.022261903
0.04013478 0.15741745 0.010467739 0.12698686 0.12596294 0.21662605 0.0747838 0.0815619
0.090266965 0.038410645 0.032185055 0.118357584 0.09337041 0.11079115 0.13842016 0.13718508
0.07091289 0.20932844 0.072224416 0.11842706 0.16116127 0.10030341 0.08133878 0.06094168
0.08731979 0.1869835 0.2612625 0.3664028 0.27886453 0.10420665 0.083981745 0.26854712
0.28301567 0.071870565 0.045649588 0.07095515 0.02471547 0.1529821 0.16880451 0.20708354
0.05109814 0.15047269 0.18746175 0.08031531 0.052563693 0.16718154 0.15043917 0.23263058
0.08827546 0.19686557 0.071099065 0.17506391 0.101273775 0.20246956 0.08039787 0.08910614
0.15821928 0.039487593 0.061542768 0.24944203 0.07452592 0.20559166 0.07353137 0.3225623
0.05556893 0.05210603 0.09513363 0.28235084 0.104615785 0.10650276 0.034822866 0.1945548

net.2.running_var f4 [128]
00000000: 684c e63d 191a 6b3d ee73 293d 70a2 443c
00000010: d98b df3d f189 bc3d 3298 bb3c db62 bd3c
00000020: 5486 1a3d 5624 d33d 8c04 9c3a f65c 613d
00000030: 5f76 363c 0598 eb3c 863b 9f3d bd25 413d
00000040: 00ff 883c 7cfb 903d 0a1d 5f3c 0dd7 b03c
00000050: 7917 043c 701c 893d 048d 523d 9725 b83c
00000060: 9b29 b63d 53f3 0a3d 35ef c63b ef36 1e3c
00000070: d557 253d e2e4 cf3d 5415 313d c533 a43d
00000080: de50 c33c 0ceb a43d 8ee4 fe3c 5b02 8d3d
00000090: d6aa 053c 626b 0b3b 18f9 3e3d 92a3 1d3d
000000a0: aa12 f83c c599 c93a ee0a 8a3d a0e1 843d
000000b0: 61bf 613d 909c 9f3d da76 a63c 5773 463d
000000c0: cced b73d 0e7e 823d ca68 b93d b1c8 193d
000000d0: 7d0b f03c 4d66 e23c 1655 0d3e a3f3 b53b
000000e0: 47b5 4c3c 32c1 863d 83be 433b f1cc 413d
000000f0: 63eb 5c3d e17b ae3d 3970 ee3c 4720 983c
00000100: 3dee 0e3d 73f4 193c 812a 303c 49b7 2b3d
00000110: 7db9 013d 4799 1f3d 4118 503d 35ff 4e3d
00000120: 548c 9d3c afe4 c53d 29e1 323d d7ce 383d
00000130: 91eb 203d 1f30 2b3d 34db 003d b111 b63c
00000140: c123 d53c d264 5d3d 3d84 c33d 463b e53d
00000150: 93f2 b53d e960 313d 94df a73c 4ca5 d63d
00000160: e325 d13d d4a3 f73c d900 5f3c 3b6a f93c
00000170: c3ea ad3b 39b7 8b3d 97b6 703d d136 6b3d
00000180: fa28 983c cdf5 863d ac44 473d 94bf a03c
00000190: 7e1c 8a3c f9d2 803d 0a95 5f3d f983 c53d
000001a0: 6852 fe3c 9ebd 953d 1504 b43c ca2e 843d
000001b0: 0842 e33c 4710 6d3d d583 d03c 8ab7 543d
000001c0: 3817 5f3d 9710 6c3c 4b45 aa3c b4dd d23d
000001d0: 8821 af3c deca 8c3d 1c59 f13c f6ef be3d
000001e0: 0c13 9e3c 0463 023d 2ec4 0d3d d46e aa3d
000001f0: dd7d 183d 1a43 783d 8a89 5e3c 5c09 673d
0.11245042 0.057397936 0.041370325 0.012001619 0.10915346 0.09205998 0.02289972 0.023118427
0.03772576 0.10309665 0.001190321 0.055020295 0.01113662 0.028759012 0.07775025 0.04715513
0.016723156 0.07079217 0.013617763 0.02158692 0.008062237 0.06694877 0.051404014 0.022478862
0.08894654 0.03392346 0.006070996 0.009656652 0.040366966 0.10151078 0.04323323 0.08017687
0.023842271 0.08052644 0.031114843 0.06885215 0.008158406 0.0021273722 0.046624273 0.03848607
0.030282337 0.001538091 0.06740366 0.06488347 0.055114154 0.07793534 0.020320345 0.04844984
0.08980903 0.06371699 0.0905319 0.03754491 0.029302353 0.027636671 0.13801989 0.0055527254
0.012494392 0.06579818 0.0029868193 0.047314588 0.05393542 0.08519722 0.029106246 0.018570079
0.03489517 0.00939666 0.010752321 0.04192284 0.031671036 0.038964536 0.05080438 0.050536353
0.019231953 0.096627586 0.04367176 0.045119133 0.039287154 0.04179394 0.03145905 0.022225233
0.026018025 0.054051228 0.09546707 0.11192946 0.08884158 0.04330531 0.020492353 0.104807466
0.102123044 0.030229487 0.013611042 0.030446162 0.005307527 0.06822056 0.05876788 0.057425324
0.018574227 0.065898515 0.048649475 0.019622602 0.01685929 0.0629024 0.054585494 0.096443124
0.031045154 0.07311557 0.021974603 0.06454237 0.027741447 0.05787685 0.025453487 0.05193285
0.054465503 0.014408252 0.020784995 0.10296193 0.021378294 0.06874631 0.029461436 0.09323113
0.019296192 0.03183271 0.03461092 0.0832192 0.037229408 0.060610868 0.013582597 0.05640541

net.4.weight f4 [64, 128]
00000000: 3733 89bd fb30 8ebd 8081 d4bd eeee 2e3d
00000010: 4712 ca3b 3886 cbbd 624d 44be fbcd c73d
00000020: 8394 c6bc dbba a5bb 9c6e a53d 5f95 35be
00000030: f62b c33d cbc7 c3bd 6f6f 64bc fa36 5e3d
00000040: db26 2a3b df52 873d 2ac9 07be 106c 8a3c
00000050: 52dc 1bbe 4e2b 34be 4ad3 353d 3664 7cbd
00000060: e374 d8bd 8a98 b3bd 5565 6ebc 25c6 af3d
00000070: e89b 233d ecca f33d d9ac 903d a6b1 09bd
00000080: 80b1 cdbd 05c0 b33d 568c 12be 096e 1dbc
00000090: cfd7 51bd 1ec7 7cbb 2b59 87bc a917 b63d
000000a0: 8296 b13d a06f bebd 6124 a73d 848e c73d
000000b0: cc22 9ebd f3bf 9a3d 0897 f4bd a9de 59bd
000000c0: d88f 823d 342d a23c 87eb 7ebd 0a0c c1bd
000000d0: 9738 ccbc bdb7 cd3d 1c8d 5dbd 876c f8bd
000000e0: ba59 e43d 674c e7bd c2f4 6c3d d09f 843d
000000f0: dd19 033d a115 80bd e355 32bd dae3 8ebd
00000100: 9388 eebd 2b6f a4bd 433c e53d d6af abbd
00000110: 6b64 b53d f615 10be fcf1 aabb 4c49 b3bd
00000120: e209 85bb 950c 383d 05f3 50bd 6027 93bc
00000130: dfad 9f3d 46bb 463d 2f86 afbd 289c 9cbd
00000140: 49b4 0f3c d056 27bc 4acd ccbd bd22 5e3d
00000150: 3dd3 ebbd 9110 483c 2f2b 0b3d d172 d2bd
00000160: a047 733d c7ae e03c 79e6 3cbd 4b9c 2fbc
00000170: 7b5a 34bd 0df6 c2bd 13aa a93d f6f8 8e3d
00000180: 46c6 4a3d fff4 5f3c 14dd 883d 0329 02be
00000190: 5bb1 c7bd 1577 e3bb 0a6c 43be 2d2d edbd
000001a0: 9d55 9dbd 59ae 1e3d 361f bb3d d389 ebbc
000001b0: d230 b5bd 2a51 253d fd78 0abe 3de2 b33c
000001c0: 11b3 03bd 2aa1 713a 275b 183d 26cb 873b
000001d0: 0798 b6bd 7737 d73c 2d5d 943d 58be 79bd
000001e0: 78cd efbd bb9f e53c efcc ccbd 5231 67bd
000001f0: 281b d7bd 0b90 84bd 4483 c3bc f592 7f3d
00000200: 96d7 d2bd 7320 813c fa56 3cb9 1c86 573e
00000210: f5e7 09bc 0412 e13a d874 203d a5b3 06bd
00000220: fe02 1cbd d7e7 f53d cb65 5cbd 689b 2fbe
00000230: 00da 1dbb 7917 abbd adb4 a2bd 2ebf 4abe
00000240: d20d b13d 9677 adbd 20c3 703d d72c d43d
00000250: f2df f1bd 4642 c3bc c4d4 05bd bdea ca3d
00000260: 83d3 40bd d40c 6bbe 729e 3dbe e346 10bd
00000270: 01a1 263e cc28 1bbe db26 febd 2d3d 003e
00000280: 5cdf c13d 41b2 a4bc 6f0b 1bbd 4ea4 b8bc
00000290: a735 e6bd 91a3 37bd 9cdb 87be bd73 003e
000002a0: 8ef9 e1bd a65d e6bd db20 853c b3b4 533d
000002b0: 2cf4 43bd 99b7 07bc a4c7 98bd d9a0 b6bc
000002c0: 49da 45bb e0d3 ae3a 474b 2dbe 1bab 6b3d
000002d0: 41ae 81bd 84de f23b 63f9 d43d f6d3 b33d
000002e0: 7aa1 b93d d1cd 623d 8843 48bb 3c81 82bd
000002f0: b772 a2bc ff25 00bd e2fb c9bd 28dd 15be
00000300: b1fe 0ebe a982 7abd 116d 923c e038 05be
00000310: b371 0abd e541 74bc fdc4 1b3c 4216 1a3c
00000320: 3fec 53bd cf7d 593d abe4 d93d 33db 46bd
00000330: 3415 853d aae1 87bd cce9 b43d cad9 20bd
00000340: d09c a53d 5626 8bbc 291a 0abe 0b13 7cbd
00000350: ad01 bbbd affc 4abc 5aaf 1d3e f6a5 8e3c
00000360: 0f9f 043d 30ce b9bd 66f4 4a3d c2ab 6dbd
00000370: f4af 71be 7f8c 153d 7fa8 fdbd b184 1bbe
00000380: 759b 83bc ab58 49be 38b2 ec3b 0be6 ce3b
00000390: caaa 81bd cb70 3abe 02b9 79bc 53d2 153d
000003a0: 5296 633c 8c0a 5d3d f03b 9abd d70f bd3c
000003b0: 3208 ebbd a9c2 e33c 7463 0fbd fab2 c13c
000003c0: bf65 edbd 2020 ebbd f347 edbd ddaa 38be
000003d0: 328d 81bc fd16 90bc 1377 fa3c bcba d5bd
000003e0: 56e7 8bbd 00be 39bd 490a 3bbe 400e bcbd
000003f0: ad63 91bd 61d8 ebbc e0d1 70bd d583 923d
-0.066992216 -0.06942936 -0.10376263 0.04270833 0.0061667296 -0.099377096 -0.19170144 0.097560845
-0.024240738 -0.0050576753 0.08077738 -0.17732762 0.09529869 -0.09559592 -0.013942583 0.05425165
0.00259631 0.06607603 -0.13260332 0.016897231 -0.15220764 -0.17594644 0.044390954 -0.061619006
-0.10569169 -0.08769329 -0.014550527 0.08582715 0.039943606 0.11903939 0.07064218 -0.033616684
-0.10043621 0.08776859 -0.14311346 -0.009608754 -0.0512312 -0.0038570832 -0.01652201 0.088912316
0.08671285 -0.092986345 0.081612356 0.097439796 -0.07721481 0.07556143 -0.119428694 -0.05319086
0.06375092 0.019796945 -0.062236335 -0.094261244 -0.024929328 0.10044811 -0.05408965 -0.12130075
0.111499265 -0.112938695 0.057850607 0.06475794 0.032007087 -0.062541254 -0.04353894 -0.06977053
-0.11647143 -0.08029016 0.11193135 -0.083831474 0.08857044 -0.14070877 -0.005216835 -0.08754215
-0.004060016 0.044933874 -0.05101301 -0.017963111 0.07796835 0.04851844 -0.08570515 -0.07646972
0.008771011 -0.010213569 -0.10000093 0.054232348 -0.115149 0.012210981 0.03397673 -0.10275806
0.05939448 0.02742709 -0.046118233 -0.0107184155 -0.0440316 -0.09519587 0.08284392 0.06981079
0.049505495 0.013669251 0.06682792 -0.12710957 -0.09750625 -0.006941686 -0.19084182 -0.11580882
-0.07682345 0.03874049 0.091368124 -0.028752243 -0.08847202 0.040360607 -0.13522716 0.021958465
-0.032153193 0.0009217436 0.037196305 0.00414409 -0.08915716 0.026271565 0.07244334 -0.06097254
-0.11709112 0.028030267 -0.100000255 -0.05644352 -0.105032265 -0.064727865 -0.023866303 0.06239601
-0.10295026 0.015762543 -0.00017961478 0.21047252 -0.008417119 0.0017171507 0.03917393 -0.032886166
-0.03808879 0.120071106 -0.053808015 -0.17149127 -0.0024086237 -0.083540864 -0.079446174 -0.19799492
0.08645214 -0.08470075 0.058779836 0.10360115 -0.11810292 -0.023835313 -0.032673612 0.09908054
-0.047076713 -0.22954112 -0.18517473 -0.035223853 0.16272356 -0.15152282 -0.12409755 0.12523337
0.094664305 -0.02010453 -0.0378527 -0.022539284 -0.11240702 -0.044833723 -0.26534736 0.1254415
-0.11033927 -0.11248331 0.016251018 0.051686 -0.047840282 -0.008283519 -0.074599534 -0.022293495
-0.0030189923 0.001333829 -0.16923247 0.057536226 -0.063320644 0.00741178 0.10399129 0.08780663
0.09064002 0.055372063 -0.003055783 -0.06372306 -0.01983009 -0.031286236 -0.09862496 -0.14635146
-0.13964345 -0.061159763 0.017874273 -0.13009977 -0.03379984 -0.014908289 0.009507415 0.009404721
-0.051738974 0.053098496 0.10639318 -0.04854889 0.06498185 -0.06634839 0.08833656 -0.0392702
0.0808655 -0.016986053 -0.13486542 -0.0615416 -0.09131179 -0.012389346 0.15398923 0.01741312
0.032378253 -0.0907253 0.049549483 -0.05802513 -0.23602277 0.03651094 -0.12385654 -0.15187337
-0.016065339 -0.1966273 0.007223394 0.0063140444 -0.063314036 -0.1820709 -0.015241863 0.036577534
0.01389082 0.053965136 -0.075309634 0.023078842 -0.114761725 0.027802782 -0.035006955 0.023644913
-0.11591672 -0.11480737 -0.11585989 -0.18033929 -0.015814397 -0.017589087 0.030574357 -0.104360074
-0.06831233 -0.045347214 -0.18265642 -0.091824055 -0.0709909 -0.028789701 -0.058793902 0.07154051

net.4.bias f4 [64]
00000000: f0da 51b7 9414 cf3d 0851 3ebc a587 7bbd
00000010: e1f8 573c a62d 80bc 5350 5a3d 89d1 103e
00000020: 8abe c8bc b16f 1b3e 55c0 54bd 8a16 ab3d
00000030: a3ab 32bd 79a2 4e3e f139 fe3d 608f 8e3d
00000040: d7eb 8d3d 6ebe 973d 4d7c 673d 98ca b93d
00000050: a475 a83d 9673 013e 0adf 393d e69b cd3d
00000060: 9fb0 1c3e 2b44 943d e7ad 023e d166 d63c
00000070: 7bef 053d f4c5 843d b0c7 8b3d 705a e4bd
00000080: ff08 673d e6f9 77bd b897 e93d 0ecd 993d
00000090: 4ff1 dbbc d8ec 993d 7eac 823d f43b 7f3d
000000a0: 02ed 70bd 33cd 29bd d17d 9f3d 21a8 12bd
000000b0: 6ccb 0d3e a17d 963d f1fa ea3d 36b7 c53d
000000c0: fdbc cc3d 8868 c638 173b a9b9 15be 183d
000000d0: f123 503d afa2 1abd 0ab5 083d a3e0 dd3d
000000e0: 5eb4 bb3d 7dd7 d0bc d585 8e3d 525e bebc
000000f0: bd80 a23c b411 edbd 353c 3b3d 3fb5 6d3d
-1.2508346e-05 0.10111347 -0.011615999 -0.061408658 0.013181896 -0.015646767 0.05329926 0.14142431
-0.024504919 0.15179326 -0.051941235 0.08353908 -0.043620717 0.20179166 0.12413395 0.0696094
0.069297485 0.074093685 0.056515027 0.09071845 0.08225563 0.12641749 0.045378722 0.10039501
0.1530175 0.072395645 0.12761651 0.026172074 0.03269909 0.06483069 0.06825197 -0.11150062
0.056405064 -0.060541056 0.11405891 0.07509814 -0.026848463 0.075158775 0.063805565 0.062313035
-0.05881978 -0.04145546 0.077876695 -0.03580487 0.1384713 0.073481806 0.114736445 0.09654085
0.09996984 9.460846e-05 -0.00032278217 0.03729065 0.050815526 -0.037752803 0.033375777 0.10833862
0.09165262 -0.025493378 0.0695912 -0.023238335 0.019836778 -0.11575642 0.045711715 0.058034178

net.7.weight f4 [1, 64]
00000000: ccce 6cbe e228 0dbe 6b66 4abe 11a8 df3d
00000010: eeaa 0ebe 4409 41be ba7a 64be 5629 2fbe
00000020: 511b e03d 626a 2fbe 2296 f53d 608e 0bbe
00000030: facc dd3d 6576 55be 0377 1cbe 6515 01be
00000040: 95d6 a93d 71d4 3bbe 2e66 4cbe 51a3 26be
00000050: 857b 85be 7866 41be 240f 26be e8b5 75be
00000060: 6ad9 25be 2281 42be fb54 efbd 34cc 0f3e
00000070: 0b69 073e f711 5bbe 0fc7 13be 4bda 2e3e
00000080: 2f43 fb3d 9621 e23d 8bbb 1dbe 571a ebbd
00000090: b923 20be 3828 053e 1f62 1b3e 9833 083e
000000a0: 0331 173e a062 d8bd 1901 99bd 5978 16be
000000b0: 99d3 5abe d823 f3bd 2fa4 52be 51c1 32be
000000c0: 692f 07be 2493 df3d 410b 82be 03e8 f43d
000000d0: c0d7 12be d315 09be c2d0 4dbe 6cfb 51be
000000e0: 3be4 5ebe 25c9 41be c7e4 0c3d 137d 0f3e
000000f0: 8646 cb3d 2e4a 00be 1310 003e 0692 68be
-0.23125762 -0.13785127 -0.19765632 0.10920728 -0.13932392 -0.18851191 -0.22312441 -0.17105612
0.1094271 -0.17130426 0.11991526 -0.1362853 0.10830112 -0.20845945 -0.15279774 -0.12605818
0.082928814 -0.18342759 -0.19960853 -0.16273238 -0.260708 -0.18886745 -0.16216713 -0.23995173
-0.16196218 -0.18994573 -0.116861306 0.14042741 0.13223664 -0.21393572 -0.14431404 0.1707546
0.12268674 0.11041562 -0.15403573 -0.11479633 -0.15638627 0.13003623 0.15174149 0.13300931
0.1476479 -0.10565686 -0.074709125 -0.14694346 -0.2136978 -0.11872071 -0.20570444 -0.17456557
-0.1320168 0.10916737 -0.2539921 0.11958315 -0.14340115 -0.13387232 -0.20099166 -0.20506066
-0.2176675 -0.18924387 0.034397867 0.14012556 0.09925561 -0.12528297 0.12506132 -0.22711954
